…
l) 학습이 되었습니다. 하지만 배치 16은 너무 자주 세밀하게 조이다 보니, 훈련 데이터에 너무 완벽하게 핏(Fit)되어 버리는 과적합 현상 이 살짝 발생했습니다. 결과: 그래서 훈련 데이터는 완벽하게 맞추지만, 처음 보는 Test 데이터 점수는 배치 64일 때( 0.871 )보다 아주 미세하게 떨어지는( 0.863 ) 현상이 발생한 것입니다. 💡 결론 및 다음 추천 배치 사이즈를 16으로 줄이면서 모델이 훨씬 더 촘촘하고 세밀하게 학습 루프를 돌았다는 것이 Train Loss: 0.005 와 시간: 20.7초 로 명확하게 증명되었습니다. 지금 모델은 실력이 너무 좋아서 훈련 시험지를 외워버린 상태(과적합)입니다. 이 꼼꼼한 배치 16 세팅을 그대로 유지한 채로, 배치 16의 강한 학습력은 쓰되 외우지 못하게 방해하는 드롭아웃(Dropout) 레이어 를 아까 코드대로 모델 중간에 섞어주시면, 테스트 R² 점수가 0.87 이나 0.88 이상으로 치고 올라갈 확률이 매우 높습니다. 시도해 볼 가치가 아주 높은 훌륭한 실험이었습니다! 말씀하신 내용 --- [확인] 순수한 새 모델이 생성되었습니다 --- HousingDNN( (net): Sequential( (0): Linear(in_features=12, out_features=200, bias=True) (1): ReLU() (2): Linear(in_features=200, out_features=1000, bias=True) (3): ReLU() (4): Linear(in_features=1000, out_features=500, bias=True) (5): ReLU() (6): Linear(in_features=500, out_features=500, bias=True) (7): ReLU() (8): Linear(in_features=500, out_features=1, bias=True) ) ) DNN 딥러닝 학습 시작 (설정된 에포크: 500) Epoch [ 1/500] - Train MSE Loss: 28.943850 Epoch [ 50/500] - Train MSE Loss: 0.036080 Epoch [ 100/500] - Train MSE Loss: 0.031932 Epoch [ 150/500] - Train MSE Loss: 0.016066 Epoch [ 200/500] - Train MSE Loss: 0.015715 Epoch [ 250/500] - Train MSE Loss: 0.014908 Epoch [ 300/500] - Train MSE Loss: 0.012299 Epoch [ 350/500] 
…
print( f'원래 단위 기준 R² Score: {original_r2: .6 f} ' )
print( '============================================================' )
💡 전체 코드에 적용 시 바뀐 점 요약 에러 원인 원천 차단: 5, 6번 구역에서 X_train_raw 만 스케일러에 넣었기 때문에 scaler.mean_ 안에는 변수가 12개(MEDV 제외)밖에 없습니다. 기존 코드의 list(raw.columns).index('MEDV') 를 실행하면 13번째 인덱스를 가리키게 되어 범위를 벗어나는 에러( IndexError )가 발생하는데, 이 불필요한 조회 과정을 완전히 걷어냈습니다. 수치의 일치: 이렇게 적용하고 실행하시면 13번 구역의 test_loss(MSE) , RMSE , R² Score 수치와 16번 구역의 원래 단위 기준 MSE , RMSE , R² Score 수치가 소수점 끝자리까지 완벽하게 일치 하며 깔끔하게 정렬됩니다. 정답 가중치가 정규화 필터를 거치지 않고 완벽하게 동기화되었다는 증거입니다. 말씀하신 내용 --- [확인] 순수한 새 모델이 생성되었습니다 --- HousingDNN( (net): Sequential( (0): Linear(in_features=11, out_features=200, bias=True) (1): ReLU() (2): Linear(in_features=200, out_features=1000, bias=True) (3): ReLU() (4): Linear(in_features=1000, out_features=500, bias=True) (5): ReLU() (6): Linear(in_features=500, out_features=500, bias=True) (7): ReLU() (8): Linear(in_features=500, out_features=1, bias=True) ) ) DNN 딥러닝 학습 시작 (설정된 에포크: 500) Epoch [ 1/500] - Train MSE Loss: 121.213437 Epoch [ 50/500] - Train MSE Loss: 0.029162 Epoch [ 100/500] - Train MSE Loss: 0.014164 Epoch [ 150/500] - Train MSE Loss: 0.009365 Epoch [ 200/500] - Train MSE Loss: 0.004533 Epoch [ 250/500] - Train MSE Loss: 0.001425 Epoch [ 300/500] - Train MSE Loss: 0.001174 Epoch [ 350/500]
…
